…
_config=None, corda_config=None, use_dora=False, alora_invocation_tokens=None, use_qalora=False, qalora_group_size=16, layer_replication=None, runtime_config=LoraRuntimeConfig(ephemeral_gpu_offload=False), lora_bias=False, target_parameters=None, arrow_config=None, ensure_weight_tying=False, lora_dtype=None, lorap_lr_ratio=None, lorap_emb_lr=1e-06)
[INFO:swift] model: PeftModelForCausalLM(
  (base_model): LoraModel(
    (model): Qwen3VLForConditionalGeneration(
      (model): Qwen3VLModel(
        (visual): Qwen3VLVisionModel(
          (patch_embed): Qwen3VLVisionPatchEmbed(
            (proj): Conv3d(3, 1152, kernel_size=(2, 16, 16), stride=(2, 16, 16))
          )
          (pos_embed): Embedding(2304, 1152)
          (rotary_pos_emb): Qwen3VLVisionRotaryEmbedding()
          (blocks): ModuleList(
            (0-26): 27 x Qwen3VLVisionBlock(
              (norm1): LayerNorm((1152,), eps=1e-06, elementwise_affine=True)
              (norm2): LayerNorm((1152,), eps=1e-06, elementwise_affine=True)
              (attn): Qwen3VLVisionAttention(
                (qkv): Linear(in_features=1152, out_features=3456, bias=True)
                (proj): Linear(in_features=1152, out_features=1152, bias=True)
              )
              (mlp): Qwen3VLVisionMLP(
                (linear_fc1): Linear(in_features=1152, out_features=4304, bias=True)
                (linear_fc2): Linear(in_features=4304, out_features=1152, bias=True)
                (act_fn): GELUTanh()
              )
            )
          )
          (merger): Qwen3VLVisionPatchMerger(
            (norm): LayerNorm((1152,), eps=1e-06, elementwise_affine=True)
            (linear_fc1): Linear(in_features=4608, out_features=4608, bias=True)
            (act_fn): GELU(approximate='none')
            (linear_fc2): Linear(in_features=4608, out_features=4096, bias=True)
          )
          (deepstack_merger_list): ModuleList(
            (0-2): 3 x Qwen3VLVisionPatchMerger(
              (norm): LayerNorm((4608,), eps=1e-06, elementwise_affine=True)
              (linear_fc1): Linear(in_features=4608, out_features=4608, bias=True)
              (act_fn): GELU(approximate='none')
              (linear_fc2): Linear(in_features=4608, out_features=4096, bias=True)
            )
          )
        )
        (language_model): Qwen3VLTextModel(
          (embed_tokens): Embedding(151936, 4096)
          (layers): ModuleList(
            (0-35): 36 x Qwen3VLTextDecoderLayer(
              (self_attn): Qwen3VLTextAttention(
                (q_proj): lora.Linear(
                  (base_layer): Linear(in_features=4096, out_features=4096, bias=False)
                  (lora_dropout): ModuleDict(
                    (default): Dropout(p=0.05, inplace=False)
                  )
                  (lora_A): ModuleDict(
                    (default): Linear(in_features=4096, out_features=64, bias=False)
                  )
                  (lora_B): ModuleDict(
                    (default): Linear(in_features=64, out_features=4096, bias=False)
                  )
                  (lora_embedding_A): ParameterDict()
                  (lora_embedding_B): ParameterDict()
                  (lora_magnitude_vector): ModuleDict()
                )
                (k_proj): lora.Linear(
                  (base_layer): Linear(in_features=4096, out_features=1024, bias=False)
                  (lora_dropout): ModuleDict(
                    (default): Dropout(p=0.05, inplace=False)
                  )
                  (lora_A): ModuleDict(
                    (default): Linear(in_features=4096, out_features=64, bias=False)
                  )
                  (lora_B): ModuleDict(
                    (default): Linear(in_features=64, out_features=1024, bias=False)
                  )
                  (lora_embedding_A): ParameterDict()
                  (lora_embedding_B): ParameterDict()
                  (lora_magnitude_vector): ModuleDict()
                )
                (v_proj): lora.Linear(
                  (base_layer): Linear(in_features=4096, out_features=1024, bias=False)
                  (lora_dropout): ModuleDict(
                    (default): Dropout(p=0.05, inplace=False)
                  )
                  (lora_A): ModuleDict(
                    (default): Linear(in_features=4096, out_features=64, bias=False)
                  )
                  (lora_B): ModuleDict(
                    (default): Linear(in_features=64, out_features=1024, bias=False)
                  )
                  (lora_embedding_A): ParameterDict()
                  (lora_embedding_B): ParameterDict()
                  (lora_magnitude_vector): ModuleDict()
                )
                (o_proj): lora.Linear(
                  (base_layer): Linear(in_features=4096, out_features=4096, bias=False)
                  (lora_dropout): ModuleDict(
                    (default): Dropout(p=0.05, inplace=False)
                  )
                  (lora_A): ModuleDict(
                    (default): Linear(in_features=4096, out_features=64, bias=False)
                  )
                  (lora_B): ModuleDict(
                    (default): Linear(in_features=64, out_features=4096, bias=False)
                  )
                  (lora_embedding_A): ParameterDict()
                  (lora_embedding_B): ParameterDict()
                  (lora_magnitude_vector): ModuleDict()
                )
                (q_norm): Qwen3VLTextRMSNorm((128,), eps=1e-06)
                (k_norm): Qwen3VLTextRMSNorm((128,), eps=1e-06)
              )
              (mlp): Qwen3VLTextMLP(
                (gate_proj): lora.Linear(
                  (base_layer): Linear(in_features=4096, out_features=12288, bias=False)
                  (lora_dropout): ModuleDict(
                    (default): Dropout(p=0.05, inplace=False)
                  )
                  (lora_A): ModuleDict(
                    (default): Linear(in_features=4096, out_features=64, bias=False)
                  )
                  (lora_B): ModuleDict(
                    (default): Linear(in_features=64, out_features=12288, bias=False)
                  )
                  (lora_embedding_A): ParameterDict()
                  (lora_embedding_B): ParameterDict()
                  (lora_magnitude_vector): ModuleDict()
                )
                (up_proj): lora.Linear(
                  (base_layer): Linear(in_features=4096, out_features=12288, bias=False)
                  (lora_dropout): ModuleDict(
                    (default): Dropout(p=0.05, inplace=False)
                  )
                  (lora_A): ModuleDict(
                    (default): Linear(in_features=4096, out_features=64, bias=False)
                  )
                  (lora_B): ModuleDict(
                    (default): Linear(in_features=64, out_features=12288, bias=False)
                  )
                  (lora_embedding_A): ParameterDict()
                  (lora_embedding_B): ParameterDict()
                  (lora_magnitude_vector): ModuleDict()
                )
                (down_proj): lora.Linear(
                  (base_layer): Linear(in_features=12288, out_features=4096, bias=False)
                  (lora_dropout): ModuleDict(
                    (default): Dropout(p=0.05, inplace=False)
                  )
                  (lora_A): ModuleDict(
                    (default): Linear(in_features=12288, out_features=64, bias=False)
                  )
                  (lora_B): ModuleDict(
                    (default): Linear(in_features=64, out_features=4096, bias=False)
                  )
                  (lora_embedding_A): ParameterDict()
                  (lora_embedding_B): ParameterDict()
                  (lora_magnitude_vector): ModuleDict()
                )
                (act_fn): SiLUActivation()
              )
              (input_layernorm): Qwen3VLTextRMSNorm((4096,), eps=1e-06)
              (post_attention_layernorm): Qwen3VLTextRMSNorm((4096,), eps=1e-06)
            )
          )
          (norm): Qwen3VLTextRMSNorm((4096,), eps=1e-06)
          (rotary_emb): Qwen3VLTextRotaryEmbedding()
        )
      )
      (lm_head): Linear(in_features=4096, out_features=151936, bias=False)
    )
  )
)
[INFO:swift] model_parameter_info: PeftModelForCausalLM: 8941.7116M Params (174.5879M Trainable [1.9525%]), 0.0001M Buffers.
The model is already on multiple devices. Skipping the move to device specified in `args`.
/usr/local/lib/python3.10/dist-packages/setuptools-68.2.2-py3.10.egg/_distutils_hack/__init__.py:18: UserWarning: Distuti
…
